best_model.pth (torch, 211364 bytes, 8 tensors)

layers.0.weight f4 [16, 1, 3, 3]
00000000: e0aa c33e fac2 4f3e ba5d abbe ae61 a93e
00000010: 880b 93be 8421 acbe de3d 1abd 5e80 25be
00000020: 7592 333e fea6 b83e de12 853e 0297 c13e
00000030: ee08 99bc 9e84 74bb f0ea 36be e78f 7abd
00000040: 896f dbbe 26c1 dbbe 0f2a 2fbe 9dd1 613b
00000050: de3e cfbd a7ea bb3e e013 f03e 63ca c23e
00000060: e6aa 7ebe 9409 8fbe e6ec debe eba5 60be
00000070: 8c3b 95bd e97d 5a3e aac7 5abe 3aba f7bc
00000080: 0bed 98be 3f4b 9bbd e5ed b4be c7fa 4abe
00000090: 862e 0d3d 0d93 96be 0687 e6be 4f50 cf3e
000000a0: 6d76 99be 30f3 0cbd 4a84 743d 07dc 033f
000000b0: 8306 37be b495 39be 81b0 b63c c237 cb3e
000000c0: 663d 0e3c 3503 d0bd ffb7 143e 35dc a2bd
000000d0: 21e2 dabe b1ca f6bd a4bc 8c3d 365c a93c
000000e0: 84d9 26be f4f7 a7be a240 d2be 8c6c 503d
000000f0: 4b64 243e 62b2 183e 4142 bc3e 1902 42be
00000100: 35a5 cd3e eff1 40be 845f db3e f4a2 92be
00000110: 78a6 89bd a9c3 f4bb 2df4 a5be f5d2 17be
00000120: bf34 9f3e 365e 583d 96e0 923e 30e2 313e
00000130: 6eb1 133e ef4e 7bbe f286 b6be 0316 37be
00000140: f188 e9bd 6aa6 da3d 3f9e c9be fde9 cc3e
00000150: 4e4a 33be 6684 31be 9201 d73c 1fb1 e43e
00000160: 2717 583d 1ad7 89be 0266 183e eb69 903e
00000170: ad53 b5bd 9219 013f ace0 f1bc 2a79 e2be
00000180: 81a7 8a3c fb32 dcbe 6c7b 09be b843 083f
00000190: a849 793e 400f 123e 268f 6dbe efac afbe
000001a0: a43e 783e fc91 9fbe 9dcd febe 878e 4b3e
000001b0: 037e 003d c2a3 183e 214a 40be 71e3 573e
000001c0: 812a 543e c6db 71be 6a41 6b3c 1ea6 ff3d
000001d0: e8e4 3f3d 11ee 343e c572 8f3e 2718 453d
000001e0: fe92 77be 8c4c c3bd 30b3 03be a2fd 81be
000001f0: 2c8a cabe a7aa c4be 528e ed3c 25ed cf3e
00000200: 963f cabe 1a7c ca3e 8868 ed3c a213 f4be
00000210: 23d0 e13e fa17 a53c 2a1b eabe 37eb babd
00000220: 432c 0cbf 8d5f b7be 03b0 983e a627 e43d
00000230: b5fa 943e df3b 843e e7ad a0bd 1e47 293e
0.38216305 0.20289221 -0.33469945 0.33082336 -0.28719735 -0.3361932 -0.037656657 -0.1616225
0.17536338 0.36064905 0.25990957 0.37810522 -0.018681016 -0.0037310491 -0.17863059 -0.061172392
-0.42858532 -0.42920798 -0.17105888 0.0034457215 -0.10119413 0.36702463 0.46890163 0.38045034
-0.2486988 -0.27936995 -0.43540114 -0.21938293 -0.07286748 0.21337093 -0.21365228 -0.030240167
-0.2986835 -0.075827114 -0.3533775 -0.19822226 0.034468196 -0.29409066 -0.4502489 0.40490958
-0.29973164 -0.03441161 0.059696473 0.5150761 -0.17873578 -0.18123513 0.02230096 0.39690977
0.008681631 -0.10156862 0.14523314 -0.079521574 -0.42750648 -0.12050379 0.06871918 0.020673852
-0.16293913 -0.3280636 -0.41064936 0.05088477 0.16053884 0.14911798 0.36769298 -0.18946113
0.40165105 -0.1884229 0.4284631 -0.28639948 -0.067212045 -0.0074696136 -0.32412854 -0.14826567
0.3109493 0.05282422 0.2868697 0.1737144 0.14423153 -0.2454183 -0.3564983 -0.1787949
-0.114030726 0.10676272 -0.39378545 0.4002227 -0.17508814 -0.17335662 0.026245866 0.44666383
0.052756455 -0.26921922 0.14882663 0.2820581 -0.088538505 0.5042964 -0.029526077 -0.44233066
0.016925575 -0.43007645 -0.13425988 0.5322833 0.24344504 0.1426363 -0.23199138 -0.34311625
0.24242646 -0.31166065 -0.49766245 0.19878589 0.031370174 0.14906219 -0.18778278 0.21082856
0.20719339 -0.23618993 0.014358858 0.12482856 0.04684916 0.1766894 0.2801725 0.048118737
-0.24177167 -0.095360845 -0.12861323 -0.2538882 -0.39558542 -0.38411447 0.028998528 0.40610614
-0.39501637 0.39547807 0.028980508 -0.4767123 0.44104108 0.020153034 -0.4572385 -0.09126895
-0.5475504 -0.35815087 0.29821786 0.11140375 0.29097524 0.25826928 -0.07845669 0.16531035

layers.0.bias f4 [16]
00000000: 5652 3e3d c148 9d3d 52af 9fbc 7cd6 e8be
00000010: df19 1c3e d9b0 51be 072b 6c3d b916 12be
00000020: 870c 90bc 6644 a2bc 254e 303e e2e5 9e3c
00000030: 11b2 89bd 230f 8e3d 748b e5bd 3ac9 833d
0.04646524 0.07679892 -0.019492779 -0.4547614 0.15244244 -0.20477618 0.05765822 -0.1426648
-0.017584099 -0.019808006 0.1721731 0.019396726 -0.067234166 0.06936481 -0.11208239 0.06434865

layers.3.weight f4 [32, 16, 3, 3]
00000000: 0059 03bd 91d3 edbc e855 253d 189a 0abe
00000010: c1ab febd adfe cd3d e5bf 80bd a356 56be
00000020: 1d8b a03d eccd 17be 9d5d b9bd be84 573d
00000030: d38f 12be 45f4 4dbe dc17 ddbc daa2 2cbe
00000040: a8b9 febd ff1d 86bc ea85 91be bb2e acbe
00000050: 3048 a0bd b71c 94be 9253 5ebe c129 06be
00000060: 3599 60be 55fd 9bbd 5f13 3e3d 3419 24bd
00000070: db02 8cbd dac3 983e f12c e63d 5c9c b3bd
00000080: 546a 6d3e 6e9c 833c e57e 3c3d 0e39 093e
00000090: 5b95 253d f128 503d 00b6 373e 4c55 50bd
000000a0: 40ef 6d3c a255 683e b33e cabd c43c 56be
000000b0: acb4 2bbd 07b4 80bc aa06 2abe 51c6 4c3e
000000c0: a231 3e3a 09a7 8ebd 0c8f 35bd 1f0d f83d
000000d0: 3784 8d3d 0d94 3cbd 096c 323e dcff 293d
000000e0: 3fa1 433e 3876 223e 0d71 66bd e4de bf3d
000000f0: 659f afbd 27ee 42be 3d53 6fbe 91c6 2f3b
00000100: bb3f b03c 52a6 9b3e a1a0 16bd c6a4 3bbe
00000110: 528e 133d e078 2b3d 06b2 093c 4b75 e53d
00000120: 7a73 91bd 246f efbd 9a2e 19be 6e26 cbbb
00000130: 8861 f33c 1f81 9d3d f7d4 c03c 32a4 893b
00000140: c78c 0e3d 21ce d33c 6311 aebc a85a 973e
00000150: 5229 563e 7cb3 4cbe a0c6 dbba e3b7 8a3e
00000160: fa9e 7bbe faa2 c2bd 31aa c5bd f61a 73bd
00000170: 6d7d e93d 1742 42be dc96 82be 28ea ef3c
00000180: 794f 86bc 0b72 12be 10e2 acbd fbf1 6b3d
00000190: 094d 9ebe cf0a 0abe 16d6 803c ec27 81be
000001a0: d38c a1be ee24 debc ff28 a0bd b31a fcbd
000001b0: ea80 2f3c 4527 823c 1877 b73d a697 943d
000001c0: d9d0 d53c 22dd dd3d 20c0 ed3c 5869 0b3e
000001d0: 67ec c43a 8e92 5f3d 991f b83c 158d cb3d
000001e0: adc3 80bd a624 4abd f1e9 e33c 40f8 20be
000001f0: bb64 e3bd 990d 063d cdfc 46bd dfbd 8e3e
00000200: f4b5 913e 5508 4fbe bde0 af3b 573b 0d3e
00000210: 125a 243e 9f6b f0bd 9777 ba3d 2588 853d
00000220: 548e f73d c9ab d0bc b41c 2d3e c4e9 9e3d
00000230: c08e 833e 4085 cb3c 7c76 4e3d 05bf 9e3c
00000240: 8331 61bd 19b5 123d b230 2fbb df4a f03c
00000250: 0fad e5bc 9227 2bbd a3aa 30be 6ed2 dfbc
00000260: 6230 e83d c1e8 24bd b819 e23c ca6f 9d3d
00000270: 0636 46bc 1ab7 91bd 9c94 9f3d 4112 aebd
00000280: ccaa 91be 361c ddbe e490 753d 2f32 553e
00000290: 8217 af3d dbf0 11be ca68 25be 3844 f03d
000002a0: 3b6b 85be 0b4f b9bc 8082 56bd 31b5 123d
000002b0: f537 bc3c 317e b13d f6b0 a73d 3b91 0b3e
000002c0: 823d 1b3e fb09 ae3d fa92 f2bc 6e5c 0bbe
000002d0: fdb9 bd3c 78d0 a3bc c05a 803d ee82 983d
000002e0: f5d5 203d 8336 2ebd 7dca 9e3d 9b38 b33d
000002f0: a118 d03d e514 9c3d af9d e13d 88d1 cdbb
00000300: 96cd dd3c 1729 0d3d a789 bbbd ad6a 153e
00000310: 161b a3bd 0737 2ebe cb2f 6ebc 664d 65bc
00000320: 43cc fa3d 711a 2c3d be28 0f3e e2a6 3f3e
00000330: a03d 493c 9543 eb3c 8798 933c 3d39 07bd
00000340: 7f6c b63d c08f e73c f621 c8bb 6882 7f3d
00000350: fb57 233d d22b 7cbd 2095 dabd 1d10 ed3c
00000360: 085d dabd 0bbb bdb8 5cfe bcbd e6a8 febd
00000370: ce78 1dbe b0b3 21bd 36c5 58be d515 aa3d
00000380: c792 83bd b6ef bdbd 1179 fbbd 61d5 803d
00000390: b08f 3d3e b9c9 133e 1e0d 833e 92d7 873e
000003a0: 79cf 1e3e e1c5 773e 4c71 30bd 5bd9 513d
000003b0: 1a96 dbbc 37ca 79bc ee0d 4bbc 9712 20bd
000003c0: 0097 49be 9897 8fbd 0586 dabd 90ac f7bd
000003d0: 8c6e bebc 9800 873d 5c1f 103c 6c50 093d
000003e0: 67bb d73c fb9e 56bd d9f5 0e3e ff37 99be
000003f0: 719b 22be 6ad9 81be 67d0 52be 9c19 0bbd
-0.0320673 -0.029031547 0.04036513 -0.13535345 -0.12435103 0.10058341 -0.06286601 -0.20931487
0.07839034 -0.14824647 -0.090510584 0.052616827 -0.14312677 -0.20112713 -0.026988916 -0.16858998
-0.12437755 -0.016371725 -0.2842248 -0.33629403 -0.07826269 -0.28928158 -0.21711567 -0.13101865
-0.21933444 -0.076166786 0.046405192 -0.040063098 -0.06836482 0.29836923 0.11239041 -0.087700576
0.23185092 0.016065802 0.046019454 0.13400671 0.04042564 0.050820295 0.17940521 -0.050862595
0.014522374 0.22688916 -0.0987524 -0.20921618 -0.04192035 -0.015710844 -0.16604105 0.19997527
0.00072553207 -0.06965453 -0.044325873 0.12111878 0.069099836 -0.04603963 0.17424025 0.041503772
0.19104479 0.1586541 -0.056260157 0.09368685 -0.08575324 -0.1903616 -0.23371597 0.0026821236
0.021514764 0.3040033 -0.03677428 -0.18324575 0.0360244 0.041863322 0.0084042605 0.112040125
-0.071021035 -0.1169112 -0.14959183 -0.0061996495 0.029709592 0.076906435 0.02353905 0.004200482
0.034802224 0.025855126 -0.021248525 0.29561353 0.209142 -0.19990343 -0.0016767569 0.2709342
-0.24572363 -0.095037416 -0.09651602 -0.059351884 0.11400876 -0.18970524 -0.25505722 0.02928646
-0.016395317 -0.14301316 -0.084415555 0.057603817 -0.30918148 -0.13480686 0.015727084 -0.2522577
-0.31552753 -0.027117219 -0.078203194 -0.1230978 0.010711888 0.015887866 0.08958262 0.07255487
0.026100563 0.10833193 0.029022276 0.13614404 0.0015024067 0.054583125 0.022476004 0.09939019
-0.06287322 -0.049351357 0.027821513 -0.157197 -0.11103197 0.03272781 -0.048580933 0.27879235
0.28459132 -0.20218022 0.005367367 0.13792168 0.16049984 -0.11739277 0.09104841 0.06520108
0.12087694 -0.025472539 0.1690548 0.07759431 0.25694847 0.024843812 0.050405964 0.019378195
-0.05497886 0.03581724 -0.0026731906 0.029332576 -0.028036622 -0.041785784 -0.17252593 -0.02732202
0.11337353 -0.040261034 0.027600154 0.07687338 -0.012097841 -0.07115002 0.07792017 -0.084995754
-0.2845062 -0.43185586 0.05995263 0.20819925 0.08549406 -0.14252035 -0.16153255 0.11731762
-0.26058373 -0.022620698 -0.05237055 0.03581733 0.022975901 0.08666647 0.081880495 0.1362962
0.15160182 0.084979974 -0.0296111 -0.13609478 0.023159975 -0.019996867 0.06267309 0.07446848
0.039266545 -0.042532455 0.07753465 0.08751031 0.101609476 0.07621173 0.11016404 -0.0062810816
0.02707557 0.034463014 -0.091571145 0.14591475 -0.079641506 -0.17013179 -0.014537762 -0.013995504
0.12245991 0.042017404 0.13980386 0.18716004 0.012282759 0.028718749 0.018017067 -0.03301357
0.08907413 0.028266788 -0.006107564 0.062380224 0.039878827 -0.061565228 -0.106729746 0.028938347
-0.106622756 -9.047062e-05 -0.09228203 -0.124345586 -0.15378115 -0.039478004 -0.2116898 0.083049454
-0.0642448 -0.09274237 -0.12278951 0.06290699 0.18511844 0.1443242 0.25595945 0.26531655
0.15508832 0.24196579 -0.0430768 0.051232677 -0.026804972 -0.015245966 -0.012393458 -0.03908023
-0.19686508 -0.07011336 -0.106700934 -0.120934606 -0.023246072 0.0659191 0.008796539 0.033523962
0.026334478 -0.05239771 0.13960971 -0.29925534 -0.15879609 -0.25361186 -0.20587312 -0.03395997

layers.3.bias f4 [32]
00000000: f42d e7bd 047f f6bc 3c05 d6bd b636 ebbc
00000010: f800 0c3e b211 1b3e f8c2 543d d445 f5bd
00000020: 3517 6c3e 4720 673d 3635 0cba a79a 4bbd
00000030: 9def a8bc 0f50 9ebb f768 933c 97dc a8bd
00000040: cf53 273d f711 043d 2327 26bd d269 bebd
00000050: b204 e5bd 8cd4 2f3d 5854 cebd 7882 5fbc
00000060: ee79 80bd eda7 893d 75c7 94bd 7dda a03c
00000070: f800 60be 4666 823d ee25 7ebd 103c 18bc
-0.11288062 -0.030089863 -0.10450217 -0.028712612 0.13672245 0.15143469 0.05194375 -0.11976209
0.23055728 0.056427266 -0.0005348505 -0.049708035 -0.020622069 -0.004831321 0.017994387 -0.08245199
0.04085141 0.032243695 -0.040564667 -0.092975274 -0.11182536 0.04292731 -0.10074681 -0.013641946
-0.06273256 0.067214824 -0.07264606 0.019635433 -0.2187537 0.06367163 -0.06204789 -0.009291664

layers.6.weight f4 [64, 32, 3, 3]
00000000: 9216 b8be e2e1 84bd 476c 653b b148 a3bd
00000010: bea2 b1bd c525 62bd 2392 553c f655 3abe
00000020: 5394 2f3d a563 80bd 616c 7bbd 32b1 7ebd
00000030: dd17 0c3d f1ca 073d c89e f7bc a7d7 e2bd
00000040: 7991 22be d03c 113c 166b 06be 2db5 3dbd
00000050: a1ae 4c3c 97c1 06be c96d f8bd e723 90bd
00000060: c56b dfbd 0639 36be 7650 06be 3e64 61bd
00000070: b42f a13d d6bf 7abd 65bc 53be d644 0dbe
00000080: 520b 34be 7af7 13bd 5210 1ebc 2515 bcbd
00000090: 1102 70bd 4ed0 b4bd 94d9 a63d 152a 0d3a
000000a0: bfa7 0c3c 0e49 cc3c 57e1 b7bd f520 59bd
000000b0: 95e2 313c 6bb0 24be c468 89bd 28d2 cfbd
000000c0: 69ac 73bd 1330 883d fcb9 a2bd 60e7 403d
000000d0: 4bab 0f3e 4315 a73c b7fc ecbd 6834 82bc
000000e0: 58dc 45bd 595d f9bc 0ad8 5a3d 07fd d9bc
000000f0: 08cc 0a3e 3e3b 3b3e eaee 633d 10fa 1fbe
00000100: 2354 17bd 15ee ccbc 56dd 443d ea21 eb3d
00000110: 2f34 263e 4b21 d5bd 4d25 adbc 7dd4 443d
00000120: 1315 71be a366 22be 037a 9bbd 91ab 63be
00000130: 9bf2 0abe b87a 1e3e e96f 53bd 4179 873d
00000140: 46a2 873d ff9e 903c 5452 cb3d c577 913d
00000150: b4c3 01bc 3ecc ee3d 924b efbb eb34 46bd
00000160: 7ca4 90bd d19d 303d 3f8c a6bc d5c3 5a3c
00000170: 6fe8 35bd 2116 65be b0f2 35be 9d6e 043e
00000180: eaf9 573b 057e 0e3e 7d02 c73d 3f6e e6bd
00000190: a88c 1dbe 1ec5 89bd 3895 96bc 9a27 bcbc
000001a0: 8c6f 0fbe 0a45 a3bd 2d4f cb3a 55b1 0bbe
000001b0: 1a07 5cbd ab60 2d3d 3174 37bd eaea 81bd
000001c0: 3eff 41bd 7c7c 5b3d 1b17 1cbe f596 a43d
000001d0: c3b7 32bd 23c7 a1bd 6f70 c5bb bb48 d63d
000001e0: 9421 47bb 73f1 3d3e c3d4 2b3d 8df5 f5bc
000001f0: 6ff0 273c 3d03 74bc d9a5 0a3d 6969 cc3b
00000200: b513 bd3d db10 09bd de36 fc3d ba32 a93d
00000210: 77d2 983c 7993 11bd ab18 db3c c4b8 933d
00000220: e313 8e3c 93e7 b23d bb47 44be baeb bdbc
00000230: a092 fa3d 7e78 893d a2c9 84bd d0e4 08be
00000240: e896 52bd daba c73d 1d25 693e 6f75 143d
00000250: 3be5 2b3e 9d8f 6e3e fc2c 3abd d93c d23d
00000260: cf55 6f3d 5199 b0bd 2285 a9bd e470 f03c
00000270: cfad 4dbd f823 a43d 41af 11bd 0c33 0f3d
00000280: f232 3a3d 49c9 bebd cd1a eabd faef 183c
00000290: 79be 73bc 9637 09bd 8339 9e3c 69ba 413c
000002a0: 0301 853d d5e2 163d a224 0c3d 9e6e 21bd
000002b0: d948 fe3c 9e1e 443d 9b5a ee3b 109a 963c
000002c0: 0986 53bd 7c0c 113d 0e19 a73c 8fcf 883c
000002d0: e98e 8dbe 2c87 e4bd 55fb debd 9b1a 0dbe
000002e0: fe64 e6bd 35f6 7ebc 24ee e9bd b3bd b73c
000002f0: bf4a acbc 90d4 00be 21b3 633d da74 00be
00000300: 2de9 d0bd 4235 3abd 4ffa 2b3e 3ab3 1e3e
00000310: 566f 4b3e 1d63 de3b 8c7b ca3c d828 bcbc
00000320: 64cb 23bd 776b 923d 85eb 6cbc 3663 663d
00000330: fe92 f7bc c45b b8bd e6b2 a8bd 9998 c2be
00000340: b8e9 87be 5b57 b03d 220d 8fbe 331c 70be
00000350: 476c 46bd 7dc8 50be 5386 b1bd 228b d23c
00000360: f50f 883d c90a 6cbd c786 23be e270 d43d
00000370: 5888 943d 4d82 92bd e206 403d f6de bbbd
00000380: c043 0fbe 73e9 5a3e e037 3b3e 6710 3c3c
00000390: 7578 4dbd cd45 17bd b89a dc3c d0a7 863d
000003a0: 28e2 fc3c 9625 503d 446a 38be 183a 2a3d
000003b0: 60db f43d 3335 febd f06c a53d d6a7 553d
000003c0: 5a24 51be d046 f5bd c6db c2bd 7472 803d
000003d0: d813 e63d 4503 4a3d d6b8 67bd 24c8 da3d
000003e0: 376b 803d 3475 dfbd 2bd0 3ebe 49d3 ce3b
000003f0: 6754 31bd 1846 86bd 6688 b8bd 2273 393a
-0.3595472 -0.06488396 0.0035007165 -0.07972849 -0.08673619 -0.0552118 0.01303533 -0.18196854
0.042866062 -0.06269006 -0.061382655 -0.062180705 0.034202445 0.033152524 -0.03022708 -0.11076289
-0.15875806 0.0088645965 -0.13126788 -0.04631536 0.012492807 -0.13159786 -0.12130315 -0.07038098
-0.10909227 -0.1779519 -0.13116631 -0.05502724 0.07870427 -0.061218105 -0.20677336 -0.1379579
-0.17582443 -0.036124684 -0.009647446 -0.091837205 -0.05859572 -0.088287935 0.081469685 0.0005384994
0.008584916 0.024937179 -0.08978527 -0.053009946 0.010857244 -0.16082923 -0.067094356 -0.10147506
-0.059490595 0.066497944 -0.0794563 0.047095656 0.14030187 0.02039588 -0.11571639 -0.01589413
-0.04830584 -0.03044002 0.053428687 -0.02660991 0.13554394 0.18284318 0.055647768 -0.15622735
-0.036945473 -0.02501587 0.048062645 0.11481078 0.16230844 -0.10406741 -0.02113595 0.048054207
-0.23543195 -0.15859465 -0.07591631 -0.22233416 -0.13569109 0.15476501 -0.051620398 0.06614924
0.06622748 0.01765394 0.09927812 0.07102922 -0.007920194 0.1166005 -0.00730271 -0.04839031
-0.07062623 0.043119255 -0.020330546 0.013352354 -0.04441112 -0.22371723 -0.17768359 0.1293282
0.0032955357 0.1391526 0.097172715 -0.112514965 -0.15385687 -0.0672705 -0.0183817 -0.022968102
-0.14007396 -0.079721525 0.0015511267 -0.13641866 -0.05371771 0.042328518 -0.044788543 -0.063436344
-0.04736256 0.053585514 -0.15243189 0.08036605 -0.04363228 -0.078993104 -0.006025366 0.10463091
-0.0030385004 0.18549137 0.041950952 -0.030024314 0.010250195 -0.01489335 0.03384957 0.006238152
0.092322744 -0.03346334 0.123151526 0.082616284 0.018655045 -0.03554103 0.026745161 0.072129756
0.017343467 0.087355755 -0.19167988 -0.023183692 0.12234998 0.06712435 -0.06483771 -0.13368535
-0.051413447 0.09752436 0.22768064 0.036244806 0.16786663 0.23296972 -0.045453057 0.10265512
0.058431443 -0.08622993 -0.08277346 0.029350705 -0.050214585 0.08014673 -0.035567526 0.03496079
0.04545874 -0.09315736 -0.11430893 0.009334559 -0.014876955 -0.033500277 0.019314533 0.011824229
0.064943336 0.036837418 0.034214623 -0.039412133 0.031040596 0.04788076 0.0072739846 0.01838401
-0.051641498 0.035412297 0.02039769 0.016700534 -0.27648094 -0.111585945 -0.108877815 -0.1377968
-0.112497315 -0.01556163 -0.11422375 0.022429323 -0.021031735 -0.12581086 0.055590753 -0.12544575
-0.10200725 -0.045460947 0.16794704 0.15498057 0.1986669 0.0067867176 0.024717115 -0.022968695
-0.03998889 0.071494035 -0.014460449 0.05624696 -0.030221459 -0.09001878 -0.08237247 -0.38007048
-0.265455 0.08610412 -0.27939707 -0.23448257 -0.048443105 -0.2038898 -0.086681984 0.02570111
0.066436686 -0.057627473 -0.15969382 0.10373093 0.07252568 -0.07153759 0.046881564 -0.09173386
-0.13990688 0.21378116 0.18283033 0.01147852 -0.050163705 -0.0369318 0.026929244 0.065749764
0.030869558 0.050817095 -0.18009287 0.04155931 0.11955905 -0.12412491 0.08077419 0.052162014
-0.20424023 -0.11976397 -0.09514575 0.0627183 0.11234254 0.049319524 -0.056572758 0.10682705
0.062704496 -0.109110266 -0.18634097 0.0063118082 -0.043293383 -0.06556338 -0.09010391 0.0007074346

layers.6.bias f4 [64]
00000000: e333 353d f864 803d 023d 1a3e 5e9b f0bc
00000010: 4897 083d db90 9a3d c832 243d 3886 9dbd
00000020: 5382 9dbc ae5c d93d 1ed3 f7bb c560 4d3c
00000030: d7c9 563d 0c79 97bc 31f9 993c da49 793d
00000040: 129e df3d 37e5 ca3d b672 243d dd26 00be
00000050: e352 1e3d 2632 82bd 8da7 85bc 610e d0bd
00000060: 797c 5c3d 6167 163d c6f6 59bd 19cf b83d
00000070: c583 af3d a9f4 e9bb b778 a23d b47e 163d
00000080: 9b25 36bd 25f5 273e 2be4 223d 9fbe 1c3d
00000090: 5de5 003d 05d9 4f3d 4e34 27bd 9daa 6ebd
000000a0: b462 253d 55b8 e73d 59ec 8fbc 605c 8a3d
000000b0: 7eb2 e73d 1817 943c a54a 5bbd 1ba3 3c3d
000000c0: f198 63bd 34e3 57bb aacc 543d e3a8 f23d
000000d0: 6311 533e 74a6 4d3e a58f 873d ed48 1e3e
000000e0: 5426 363d 75cd 64bb 87c7 9b3d bdb5 7fbd
000000f0: 7eba 863d 2c65 d43c 982f 80bd 224d 5d3d
0.044238936 0.06269258 0.15062335 -0.02937096 0.033347398 0.0754716 0.04008749 -0.07691616
-0.019227182 0.1061338 -0.007563009 0.012535279 0.052438583 -0.018490337 0.018795582 0.060861446
0.109188214 0.099070005 0.04014846 -0.12514825 0.038653266 -0.06357221 -0.016315246 -0.101589926
0.053829644 0.036719684 -0.053213857 0.09023876 0.08570055 -0.0071397615 0.07933181 0.036741927
-0.044469457 0.16402109 0.03976838 0.038267728 0.031468738 0.050744075 -0.040821366 -0.05826818
0.040377334 0.113144554 -0.017568754 0.067559004 0.113133416 0.018077418 -0.053537983 0.046053987
-0.05556578 -0.003294182 0.051952995 0.11848619 0.20612101 0.20083028 0.06619195 0.15457506
0.044470146 -0.00349125 0.07606416 -0.06242918 0.06578539 0.025927149 -0.06259078 0.054028638

layers.9.weight f4 [7, 4096]
00000000: 57bb ad3d 0fdd 4dbd d8e2 263d 7814 e33d
00000010: 9384 4c3d ad2f e73d e555 973d 4b55 893e
00000020: aae8 0cbd 9426 3b3c 5ffa be3c f68b 1fbd
00000030: 7754 3f3e ba23 bdbd 8db0 b7bd 0603 ce3b
00000040: d044 e1bd a733 5c3c db9a a23c 5ee4 a53c
00000050: 07a2 f8bc 1b87 ac3d 3364 b13c e6ce b73d
00000060: 6d5a ddbb ccd1 8bbc c977 4bbb 03bc 403d
00000070: 3e76 8cbc 731f f43d 0099 e13b 9c78 a9bd
00000080: 4dc1 3cbc 1ead 8dbd b5c5 453d c973 6bbc
00000090: 2903 29bd 8dbd 1a3d 7935 703c f4a4 ea3d
000000a0: 8628 7c3d d927 313d 2f25 c93c f492 98bc
000000b0: 9e72 4b3c ecd8 6a3d f680 1fbd c439 813d
000000c0: 1e6f 873d 5f58 803d 9616 b53c 14b9 7cbd
000000d0: 2777 78bd a7d0 9abd 28eb a2bd 9365 3dbc
000000e0: 5268 6fbd d587 d63d d7ac 38bd f63d 96bd
000000f0: 77a2 473c 82f1 acbd d5ff 33bd 3106 20bd
00000100: a671 20be d1a7 04be 9e61 ddbd 956b 753d
00000110: 5690 1d3d c7ae 2bbd 95e8 90bc 9efb 90bc
00000120: d8c9 a8bb ed48 edbc 9c0e e4bd bcd3 cb3d
00000130: a2a5 573d 53e0 11bd 8511 d93d 07d2 8f3c
00000140: a108 b73c a120 a5bd 1ed6 2bbd 7c82 a5bc
00000150: 5b5c 70bc 8207 163d 6a71 2d3c ca2d afbd
00000160: 245e 07be dab6 97bd 67ea 32bc 88b4 393c
00000170: 2786 2dbd 580e 203c 4884 a63c 6432 dbbd
00000180: 0c5b 953d c830 38bd be70 79bc 5e59 82bc
00000190: 159c 803d 0abe 6bbd 4be9 fd3d ca42 5bbd
000001a0: 883d 94bd ef33 563d bae6 43bd 5c18 e83c
000001b0: b13d 133d f21a c63b e95d 58bd f0d6 babc
000001c0: 05bb 9cbd 989c f13d 899b 6e3d dc9c b53d
000001d0: 324a e83d a49e 1b3d 7b3f d43d f1c1 3dbe
000001e0: a718 643d ed44 80bd 1157 013c ba85 97bb
000001f0: e663 fc3c c4c7 75bd 949c 94bc 42a7 33bd
00000200: 329a 9c3d 6075 013e 71f7 cc3c cc0f 1f3d
00000210: c908 423c dc78 47bb 68d7 f2bb 8ab2 653d
00000220: 2ca7 513d ef09 493b 83e8 a73a d4bc b23d
00000230: 5c5d 2a3e 0864 c03c 50e3 ab3c 8007 36bc
00000240: aa3d a8bd 3a48 a93d 3bac aabd 5c2d 7d3d
00000250: d197 c0bd 621e 88bd da12 b9bb 6bc9 8ebd
00000260: d845 91bc 7e5d 14bd e80f 763b 6392 0dbd
00000270: effb aabd 0bcf 5d3d ca79 16bd e0a2 54bc
00000280: d3c2 edbd 5a97 2bbb 45e6 c2bc 0815 0bbd
00000290: 60ac babd e0ee 443c 1349 3d3d 97cb f63b
000002a0: 5884 ae3d 7fa4 d2bd f1fa 72bd 7b5c f0bd
000002b0: 8397 52bd f523 86bd a989 1c3e 6fc8 19bd
000002c0: 6338 973c e0ea 01be d9f3 8dbd d877 10ba
000002d0: adc7 ac3d 594a 16bd 5247 60bd 810e 0ebd
000002e0: e6bf dfbd ab99 ffbd 7c39 a7bd ee25 1f3c
000002f0: 6126 a13d bd73 2a3d 6fc4 e83b 24bb b9bd
00000300: 7150 86bc 49f6 4bbd d0bf a13c f957 5a3d
00000310: 800a 003e 13e5 71bd ceb7 81bd 8904 54bd
00000320: 6b10 40bd 17f2 08bd 1397 89bd 0599 b6bd
00000330: c85c 87bd 77d3 47bd 325b 3ebd 9035 e0bd
00000340: c3c2 19be 3f20 cfbc e062 a43d 3878 a9bd
00000350: 8e57 fb3d 2058 d53c c63b bebc 575c c8bd
00000360: e76b babd d745 1a3d 89d3 ba3d a1c9 8cbb
00000370: 4ce6 14bc 6ea4 c43c 3130 1b3d 7ba0 39bd
00000380: fd10 2fbd 8765 bb3d 0846 4d3e 5b22 353e
00000390: 27aa f63d b6a5 073e 770d 313e a0c8 9f3c
000003a0: 085e 33be 803b af3d 3582 853d c6db 003e
000003b0: b9af 1c3e 91a3 5f3e 7de7 583e 9a3e 64bd
000003c0: e65b 343d 5882 20bb 3374 f73d 4abd 393e
000003d0: 92f8 543e f985 923d f8a0 68bc 50f9 ec3c
000003e0: 497a 21bd eaad 853d 5c01 f8bc 448a b9bc
000003f0: 8159 3fbd 68aa 92bd 3263 243d 2814 c23d
0.08482998 -0.050259646 0.04074368 0.110878885 0.04993112 0.1128839 0.0738943 0.26822886
-0.034401573 0.011422772 0.023312746 -0.038951837 0.18684565 -0.0923533 -0.08969221 0.0062869815
-0.10999453 0.013440049 0.019849231 0.020250496 -0.030350698 0.08424207 0.021654224 0.089750096
-0.0067551644 -0.017067812 -0.003104674 0.047054302 -0.017146226 0.11920061 0.006884694 -0.082749575
-0.011520696 -0.06917785 0.04828425 -0.014370867 -0.04126278 0.037778426 0.014661186 0.114572436
0.061562084 0.043250892 0.024553863 -0.01862476 0.012417464 0.05733578 -0.038941346 0.06309846
0.06612991 0.062668554 0.022105496 -0.06169994 -0.060660508 -0.075593285 -0.07955009 -0.011559862
-0.058449097 0.10475127 -0.045086708 -0.07336037 0.012184731 -0.084445015 -0.043945152 -0.039068405
-0.15668353 -0.12954642 -0.108096346 0.05991705 0.038467728 -0.041914728 -0.017689029 -0.017698105
-0.005151015 -0.028965438 -0.11135599 0.099524945 0.052648194 -0.035614323 0.10599045 0.017556204
0.022342982 -0.08062864 -0.041952245 -0.020203821 -0.014670457 0.036628254 0.010586122 -0.085536554
-0.13219506 -0.07407923 -0.010920144 0.011334546 -0.042364266 0.009769045 0.020326748 -0.107029706
0.072927564 -0.044968396 -0.015224634 -0.015911754 0.0627977 -0.057554282 0.12398013 -0.053530492
-0.07238299 0.05229562 -0.04782746 0.028331928 0.035947505 0.0060456926 -0.052823935 -0.022807568
-0.07652859 0.11797446 0.0582538 0.08867809 0.11342277 0.03799309 0.103636704 -0.18531014
0.055687573 -0.062631465 0.007894293 -0.0046240957 0.030809354 -0.060004964 -0.018141069 -0.04386068
0.07646598 0.12642431 0.025020333 0.038833424 0.011842915 -0.0030437028 -0.0074109323 0.05607847
0.05118482 0.0030676087 0.0012810383 0.08727422 0.16637176 0.023485199 0.020982414 -0.011110187
-0.082148865 0.08265729 -0.083336316 0.061810836 -0.09403957 -0.0664642 -0.0056479992 -0.06972011
-0.0177335 -0.036221974 0.0037546102 -0.034563433 -0.08348834 0.05415253 -0.03673724 -0.012978286
-0.116094254 -0.0026182742 -0.023791442 -0.033955604 -0.09114909 0.012019843 0.046212267 0.007531594
0.08521336 -0.102852814 -0.059321348 -0.11736389 -0.051414024 -0.06549827 0.15286888 -0.037544664
0.018459504 -0.12687254 -0.06931276 -0.0005511022 0.08436523 -0.036691997 -0.054755516 -0.0346818
-0.109252736 -0.12480482 -0.08165261 0.009713633 0.07868648 0.041614283 0.007103495 -0.09068897
-0.01639578 -0.049795423 0.019744784 0.053306554 0.12504005 -0.059056353 -0.06333886 -0.051762138
-0.046890657 -0.033434 -0.06718268 -0.08915905 -0.066094935 -0.048785653 -0.04647369 -0.10947716
-0.15015702 -0.02528393 0.080266714 -0.08274883 0.12272559 0.026042998 -0.023221862 -0.097832374
-0.09102612 0.03766426 0.091223784 -0.004296497 -0.00908811 0.024004187 0.037887756 -0.04531906
-0.04274081 0.09150224 0.20046246 0.17688887 0.12044173 0.13246807 0.17290293 0.019504845
-0.17516339 0.085562706 0.06518976 0.12583837 0.15301408 0.2183974 0.21182056 -0.055723764
0.044032954 -0.0024491753 0.1208271 0.18138614 0.20797947 0.071544595 -0.014198534 0.028927475
-0.03942326 0.06527312 -0.030274086 -0.022648938 -0.046716217 -0.07161409 0.040133663 0.09476501

layers.9.bias f4 [7]
00000000: f66e d5bc dc3a a1bd 6169 973c 5b7c c53c
00000010: 8c0a b33c 31d5 443d 3cf3 b7bd
-0.026053887 -0.07872555 0.018482866 0.024107149 0.021855615 0.048054878 -0.0898194
